Code/Model/AImodel.tflite (tflite, 26876 bytes, 6 tensors)

arith.constant f4 [2, 16]
00000000: 5d78 0540 49b7 d13f 4a71 e3bf 4a4b cf3f
00000010: bf20 c9bf 584e e8bf e157 10c0 3cb2 f8bf
00000020: fe42 cf3f 956b b8bf 6aec cdbf c37f b93f
00000030: daa9 c63f d689 c33f a6c6 d7bf 4560 ed3f
00000040: 0ed7 9cbf cba5 c6bf a405 f73f 5b6f f8bf
00000050: b78c 1140 f6f3 f93f d146 c73f 8ef9 0340
00000060: 479a b3bf f808 e73f e82d 0040 a279 7bbf
00000070: f357 b3bf 7837 03c0 411a f93f d609 d1bf
2.0854714 1.6384059 -1.7768948 1.6194851 -1.5713118 -1.8148909 -2.2553637 -1.9429393
1.6192319 -1.4407831 -1.6087773 1.4492115 1.5520585 1.5276439 -1.6857498 1.8545004
-1.225313 -1.5519346 1.9298596 -1.9408983 2.2742136 1.9527576 1.5568486 2.0621066
-1.4031457 1.8049612 2.002802 -0.9823247 -1.4011215 -2.0502605 1.9461137 -1.6331127

arith.constant1 f4 [16, 16]
00000000: 319f 243e d531 dabe 0b3e ea3f 2e84 f03e
00000010: 479e 423f ddb4 c83d ede8 0d40 312a 9bbf
00000020: 7dbb a4bf 25ba 3dbd 3375 62bf bcad aebf
00000030: 47bf 73bf a39e fb3f e476 a1bf 3de3 a5bf
00000040: a2f8 2d3f 3501 c6be 828c 0f40 d410 4c3e
00000050: 0dc8 133f 0454 f7bc c9ad 2740 72c2 88bf
00000060: 6dd3 2dbf 76aa c1bd 2ec2 acbf a169 b7bf
00000070: 929a 91bf b63b e73f 8f39 c2bf 48b7 adbf
00000080: 05cb d7be a3ce b13e a376 59c0 4fbe 06bf
00000090: e514 01bf 3293 55bf 5518 93c0 d923 e73f
000000a0: b173 183f c17c 3bbf 5db7 af3e c558 6b3f
000000b0: 1c10 03bf cff3 30c0 802f 333f 55c9 653f
000000c0: 2bd0 483d 4356 28bf af30 0640 541c 043f
000000d0: 26c4 be3e 9d3c d53e 5bc5 2040 d2f7 8dbf
000000e0: d4eb 8abf 92ea fdbd 360f 0dbf 8ede 9cbf
000000f0: a9e5 bfbf 6da4 e43f c397 dcbf 518a 7bbf
00000100: 543a 74be dc6d af3e d02b 52c0 31f8 58bf
00000110: 785d 5bbf ec60 2fbf 4513 8ac0 f2a7 f93f
00000120: e16c bb3e 6eb5 2ebf e59b 353e dd80 863f
00000130: 0e10 80be 2f8d 1dc0 17c0 163f a650 9f3f
00000140: d13b 31bf 3b36 923e 4834 53c0 76a6 0fbe
00000150: 3d30 68be cc33 40bf 9cf3 8cc0 07fb e23f
00000160: f2ae 063f 87cf 5abf 8e09 cb3d 946a 043f
00000170: be26 2bbf 0a06 25c0 f154 463f 3cde 723f
00000180: 4dd7 3bbf 45fd c73e b674 53c0 248a 91be
00000190: 1b86 5bbf 7aca fabe d686 96c0 5ef6 f73f
000001a0: fa75 2b3f bfaa 26bf 4ed1 0c3f 8b5c 9d3f
000001b0: bfed 1abe e2a7 32c0 eade 123f 4d5d 113f
000001c0: eec8 22bf b92d 1c3d 37ca 48c0 0b56 37bf
000001d0: 9b74 1fbf a7c7 2abf 0a7c 90c0 b383 f63f
000001e0: bb53 323f 477a babe 4dcc ea3e 55b8 933f
000001f0: fb3f d4be 4ae1 31c0 2287 473f ce0e 233f
00000200: 27cd 29be feb4 70bf ada5 0940 3247 4a3f
00000210: 4b1d 5e3e 3917 8b3e 112f 2540 8c19 8fbf
00000220: a6af b2bf 9799 d93e 9b65 25bf 5fad 9cbf
00000230: ee9b b6bf 3dc1 e23f 00d1 acbf 3da2 72bf
00000240: 7c7c 4cbf 216e 803d 884b 2ac0 9812 1dbf
00000250: 166c a9bd b4e6 35bf c837 85c0 238b d13f
00000260: 5ce7 af3e 2396 edbe e5f9 8e3e 1ef0 7e3f
00000270: b6bd 95be 4e18 0dc0 1359 3b3f 70a6 543f
00000280: 2349 a4be 469c ce3c 7896 5fc0 23d4 abbd
00000290: 36f5 7fbe c0ae 04bf 69fa 9bc0 e349 f43f
000002a0: 0e9b 1f3f 4761 84bf bba4 503f 37a6 2d3f
000002b0: fc9d 7dbe ebc0 46c0 abed 5b3f 4f8f 2a3f
000002c0: ec10 b53e df40 a4bd 4ee5 f33f 87ca 083f
000002d0: 2c14 193f 690a 6e3e 7b4c 2e40 1d73 93bf
000002e0: 11db 46bf 37a3 00bd 0f0c 86bf 3244 e9bf
000002f0: ea63 84bf ecf6 c93f bd5d 6ebf 5747 92bf
00000300: d0ca 8e3e a083 e3bc 0644 0240 1081 3a3f
00000310: 183e e03e a0e1 4b3d 78b6 2140 220e 92bf
00000320: 0e60 65bf 7e26 273e 82df a7bf 194a cabf
00000330: e586 8ebf f832 d23f be49 89bf 8945 a6bf
00000340: a1df df3e 9140 293e 74bf ed3f 1f54 093e
00000350: 1daa 4c3f 8797 453d a847 1e40 b476 c6bf
00000360: fb52 78bf 5585 f93e bd49 b6bf efbe b4bf
00000370: d590 84bf 653a d03f cc33 e6bf b9c2 b8bf
00000380: 718b 54bf c75a 603c 3e64 3fc0 a29e d8be
00000390: 1ee2 01bf bf64 47bf 4805 89c0 aef8 e53f
000003a0: 0883 273f 32e9 18bf 4ea5 35be 3ae7 283f
000003b0: 312b 54bf 5791 0ac0 0cc7 5f3f 4388 693f
000003c0: fc5c 713e eae3 83bf 753d 1f40 2c16 1a3f
000003d0: 7cc4 b93e 414f e03d 8435 3a40 fac1 81bf
000003e0: 53e8 c7bf 05bc 4e3e 2a23 96bf dc13 17bf
000003f0: eb31 c0bf 86ed da3f 76e6 f2bf 6822 9fbf
0.16076352 -0.42616144 1.8300184 0.46975845 0.7602276 0.09800122 2.2173417 -1.2122251
-1.2869717 -0.0463201 -0.8846008 -1.364677 -0.9521374 1.9657787 -1.2614408 -1.2959973
0.6795751 -0.38672796 2.242951 0.19928294 0.5772713 -0.030191429 2.619982 -1.068434
-0.67900735 -0.09456341 -1.3496759 -1.432911 -1.1375296 1.8065097 -1.5173815 -1.3571558
-0.4214708 0.34727964 -3.397866 -0.5263414 -0.5042251 -0.8342773 -4.59672 1.8057815
0.5955153 -0.73237234 0.34319583 0.91932327 -0.51196456 -2.764881 0.69994354 0.89760333
0.04902665 -0.65756625 2.0967214 0.51605725 0.37259024 0.41647807 2.5120456 -1.1091254
-1.0853219 -0.12398256 -0.55101335 -1.2255418 -1.4991962 1.7862679 -1.7233814 -0.9825793
-0.23850375 0.34263504 -3.283924 -0.8475371 -0.85689497 -0.68507266 -4.314852 1.9504378
0.36606506 -0.6824559 0.1773525 1.0508076 -0.2501225 -2.4617422 0.58886856 1.2446487
-0.692319 0.28557 -3.300066 -0.14028344 -0.22674651 -0.75079036 -4.4047375 1.7732857
0.52610695 -0.8547291 0.09913932 0.51725125 -0.6685599 -2.5784936 0.7747336 0.9487035
-0.733754 0.39060417 -3.3039985 -0.28425705 -0.85751504 -0.48982602 -4.7039595 1.937206
0.6697689 -0.6510429 0.55006874 1.2293867 -0.15129755 -2.7914968 0.5737139 0.5678299
-0.63587844 0.038129542 -3.1373422 -0.71615666 -0.622873 -0.66710895 -4.5151415 1.9258941
0.6965901 -0.36421415 0.45858994 1.1540629 -0.41455063 -2.7793756 0.7794057 0.63694465
-0.16582166 -0.9402617 2.150737 0.79014885 0.21690862 0.27166155 2.5809977 -1.1179671
-1.3959854 0.42499992 -0.6460816 -1.2240409 -1.4266336 1.7715222 -1.3501282 -0.94778806
-0.7987745 0.062710054 -2.66086 -0.61356497 -0.08272569 -0.7105515 -4.163059 1.6370586
0.343562 -0.46403608 0.2792503 0.9958514 -0.292463 -2.2046084 0.7318279 0.83066463
-0.3208705 0.025221001 -3.493559 -0.08390071 -0.24995884 -0.5182915 -4.8743176 1.9085048
0.6234597 -1.0342187 0.8150136 0.6783175 -0.24767298 -3.1055248 0.8590953 0.6662492
0.35364473 -0.08020186 1.9054353 0.5343403 0.59796405 0.23246159 2.723418 -1.1519505
-0.7767802 -0.031405654 -1.047243 -1.8223937 -1.0342991 1.577848 -0.93111783 -1.1428021
0.2788911 -0.027772725 2.0354018 0.72853184 0.43797374 0.04977572 2.526762 -1.1410563
-0.8959969 0.16323277 -1.3115084 -1.5803863 -1.1134917 1.6421804 -1.0725629 -1.298997
0.43725303 0.16528536 1.8574052 0.13410996 0.7994707 0.04824021 2.4731236 -1.5504975
-0.9700162 0.48734537 -1.4241253 -1.4120768 -1.0356699 1.6267821 -1.7984557 -1.4434425
-0.8302527 0.013693518 -2.9904933 -0.42308527 -0.5073565 -0.778881 -4.2818947 1.7966516
0.6543431 -0.5973083 -0.1773884 0.65977824 -0.82878405 -2.1651208 0.87413096 0.91223544
0.23570627 -1.0303929 2.488126 0.6019008 0.36282718 0.109526165 2.9095163 -1.0137322
-1.5617775 0.20188911 -1.1729481 -0.5901468 -1.5015234 1.7103736 -1.8976581 -1.2432375

arith.constant2 f4 [16, 360]
00000000: e0a4 52be 3b80 e13f cdfa 333a 3229 bbbe
00000010: b4b9 8f3e cecc 4dbe b24c e4be 15aa d73f
00000020: ee14 a43e 480d cabd 0b2e 06be 3341 c7be
00000030: 7dc7 64be 88e4 f33f acf2 4a3e fec5 6abe
00000040: b154 cfbe b25a 08be 03dc 71be 7b01 e73f
00000050: 8ffc 813d 488b 93be 3621 e8be 2040 20be
00000060: df32 07be 1d6e e83f f13a 30be 9430 62bc
00000070: 76ed 48be a5af 7b3e fd53 28be 714f f53f
00000080: 2516 253d d829 71be 70f5 a4be c04b d63e
00000090: b0be aabe c614 da3f 86fd 673d b692 5bbe
000000a0: 2bab adbe c34e c53e e465 82bc b60b ac3f
000000b0: 5ef1 e4bd 6948 afbe 76f8 63be e211 e53e
000000c0: 74bd 62bd e86f 9f3f 4ffd 24bd 9285 b1be
000000d0: 7265 ddbe e479 003f 65f9 b8be f0d4 983f
000000e0: d746 963d 8db8 4ebe 35a3 23bf 0901 aa3e
000000f0: b420 92be b19b 773f fb87 d03d 1b48 b4be
00000100: dde9 2fbf d0e3 9c3e 73d4 3dbd 66b1 4e3f
00000110: 22f9 22bc cca3 83be 756c 37bf 1946 273e
00000120: 30ae 793c 6f6b 2e3f 640b 1f3d 9361 2ebe
00000130: 8c4e 15bf 60d6 913e 67b3 abbe 113b 573f
00000140: 1f24 043e bbde 6b3d 9ea1 a1be f75d fa3e
00000150: 621c 92be 536d 563f 9fbd b63c faa0 bd3b
00000160: da71 ecbe 60a8 163f e89b b0bd 01d1 513f
00000170: 3fbb 913e 94f8 13bd c1da f7be 87aa c23e
00000180: 480c 8abd c44d 223f 6ef5 aabd ea5d 073e
00000190: 31bb 50be 90aa be3d 9eee 563e f9b8 033f
000001a0: a26f d8be 7ace 753e 23db d3bc de19 9b3e
000001b0: e99d 973d 4405 413f dbb3 2dbe 5f26 d83e
000001c0: 475d cabc 3cc9 a33e 2a93 4c3e a059 923f
000001d0: 674c 96bc dc35 8e3e abf4 60bc baa7 823e
000001e0: cd8b 2e3e 0f18 123f e29b 15be 9c95 633e
000001f0: 855a c23e 5211 b53e 47db 0f3e 5ccd 6f3f
00000200: 0375 eebd 5401 e23e 7709 3c3e be9c b53d
00000210: 3497 993d 1b9c 5f3f c116 adba 36a8 cc3d
00000220: b7f6 d4bd 6902 87be d897 b53e ccf9 153f
00000230: 6c8f 393d 2ae4 8d3e f643 c4be 42df 9bbe
00000240: 8a22 7b3e 0335 543f 7e7e 3bbe 6929 173f
00000250: b24e f2be d872 a93e d3a6 003f 1afc 9d3f
00000260: 1b19 8cbd 29fc 4d3e 954a b8be 8b0d 683e
00000270: 2ab5 373f a834 713f a5aa 14be 374f 353e
00000280: fc24 53be bab8 393f 3644 563f 8fe5 363f
00000290: 7752 58be f718 913e 9d37 dcbd 3d4f 4f3f
000002a0: 40e0 3a3f b80b 233f 07e1 49be 8891 913e
000002b0: 8735 e53d 7fdc 413f d99e 503f 0841 ee3e
000002c0: 7f1d 29bd cb5b 963e 1ea7 e13d f890 843f
000002d0: 5379 2e3f aca3 343f 387b 7abe a4d6 493e
000002e0: d49c 253c b6c2 713f e7b5 433f f269 1d3f
000002f0: 5a8a 9ebe 88bf ef3e bbad 90bc f366 633f
00000300: d2a2 673f 9da8 113f e05b 9fbe e9c2 833e
00000310: 2f53 8d3c 02c7 693f f422 2b3f dd4e ea3e
00000320: e372 0bbe e7a4 cb3e e1ac 3ebe 9d41 0a3f
00000330: 3b78 523f cf2c 3b3f 0269 09be f210 063f
00000340: 9439 ffbd 80e0 863f d3bd 883f 7468 5b3f
00000350: 239a 90be 6e54 c63e cda7 143f e740 953f
00000360: 5e95 273f a713 3b3f 122a d2be 1170 ca3e
00000370: 0ff4 4b3f 5e74 853f 14e0 4d3f 4cf9 203f
00000380: 6c33 1dbe 1dc1 e23e dd60 233f 7f53 5d3f
00000390: 9977 213f 9bbe 3f3f 942e 22be 5766 d03e
000003a0: bd48 e23e 3048 203f d94a 053f 165b 3d3f
000003b0: 06ec c1be f992 9c3e 8374 343e 8027 0a3f
000003c0: 668d 243f 7e24 6e3f 2aa4 a6be 8972 0c3f
000003d0: b074 963e d8b4 653f 71a2 023f 9be2 593f
000003e0: 5902 a3be c781 ac3e 2ae8 503e d636 0c3f
000003f0: 3ba5 b43e 1275 023d b5fb 66be 52ce a13e
-0.20570707 1.7617258 0.00068656803 -0.36554867 0.28071368 -0.20097658 -0.44589764 1.684878
0.32047218 -0.098658144 -0.13103501 -0.3891693 -0.22341724 1.9054117 0.19819134 -0.2292709
-0.40494302 -0.13315848 -0.23619084 1.8047327 0.06347 -0.288172 -0.45337838 -0.15649462
-0.13203 1.8158604 -0.17209984 -0.013805527 -0.19621834 0.24578722 -0.16438289 1.9164869
0.04030432 -0.23551118 -0.32218504 0.41854668 -0.33348608 1.703759 0.056638263 -0.21442685
-0.33919653 0.38536653 -0.015917726 1.3441074 -0.1117885 -0.34234932 -0.22262749 0.44740206
-0.055356458 1.2456026 -0.040280636 -0.3467222 -0.4324146 0.5018599 -0.36127773 1.1939983
0.073377304 -0.20187588 -0.6392091 0.33203915 -0.28540576 0.9672194 0.10182186 -0.35211262
-0.6871622 0.30642557 -0.046345185 0.8073944 -0.009947093 -0.25710905 -0.7164987 0.16335334
0.015239283 0.6813268 0.038829222 -0.17029409 -0.5832298 0.28483868 -0.3353531 0.84074503
0.12904404 0.05758546 -0.31568617 0.48899814 -0.2853728 0.83760566 0.022307215 0.005787012
-0.46180612 0.5885067 -0.08623487 0.8195954 0.2846317 -0.036125734 -0.48409083 0.38020727
-0.06740624 0.6339991 -0.08347593 0.13219419 -0.20383908 0.09309876 0.20989463 0.5145412
-0.4227267 0.24004546 -0.025861328 0.30293173 0.07403166 0.7539866 -0.1696314 0.42216775
-0.024702681 0.31989467 0.19978014 1.1433601 -0.018346978 0.27775466 -0.013730208 0.2551859
0.17045517 0.5706796 -0.14610246 0.2222504 0.37959686 0.35364777 0.14048491 0.9367273
-0.11643412 0.44141638 0.18362986 0.08867787 0.07499543 0.87347573 -0.0013205634 0.09993021
-0.103986196 -0.26369026 0.3546741 0.58584285 0.045302793 0.27713138 -0.383331 -0.3044377
0.24524894 0.8289339 -0.18309972 0.5904756 -0.47325665 0.3309543 0.50254554 1.234256
-0.06840726 0.20115723 -0.35994402 0.22661416 0.7176081 0.9422097 -0.1451822 0.17706
-0.20619577 0.72547495 0.8369783 0.7144403 -0.21125208 0.2833936 -0.10752795 0.80980283
0.7299843 0.63689756 -0.19714747 0.28431344 0.1119185 0.75727075 0.8149238 0.4653399
-0.041287895 0.29366907 0.11018203 1.0356741 0.68153876 0.70562243 -0.24461067 0.19710785
0.0101081915 0.9443773 0.76449436 0.61489785 -0.3096493 0.46825814 -0.017660966 0.88828963
0.9048282 0.5689791 -0.31124783 0.25734642 0.01725158 0.91319287 0.6685021 0.45763293
-0.13618045 0.39774248 -0.18620636 0.5400637 0.8221471 0.7311525 -0.13418964 0.52369606
-0.12462154 1.0537262 1.068293 0.8570626 -0.28242597 0.3873629 0.58068544 1.1660432
0.6546229 0.7307686 -0.41047722 0.39538625 0.7966928 1.0426137 0.8042004 0.62880397
-0.15351647 0.4428796 0.63819677 0.8645553 0.63073117 0.74900216 -0.1583808 0.4070308
0.4419612 0.6261015 0.52067333 0.7396711 -0.37875384 0.3058088 0.1762257 0.5396652
0.64278257 0.9302443 -0.32547122 0.54862267 0.293859 0.8972907 0.51029116 0.851114
-0.3183773 0.33692762 0.20401064 0.54771173 0.3528231 0.03184993 -0.22556956 0.31602722

arith.constant3 f4 [2]
00000000: 4442 ab3d 2142 abbd
0.083622485 -0.083622225

arith.constant4 f4 [16]
00000000: 2fd2 273e 789d bcbc 5d6d 30be 18ef 113e
00000010: db6d 523e 3a07 eb3d f198 cdbe 1641 6a3f
00000020: 5aa3 c83d fb1e f03d 5ac9 dcbd b14d 313d
00000030: 0ecc 16be 0b65 53bf 081a 543f 2dc2 cd3e
0.16388772 -0.023024306 -0.17229219 0.14251363 0.20549719 0.11475988 -0.40155748 0.91505563
0.09796782 0.11724659 -0.10780592 0.043286983 -0.14726278 -0.82576054 0.8285222 0.40187207

arith.constant5 f4 [16]
00000000: 536c b53e 81a8 9c3e 881a 88be 2d2c 8a3e
00000010: 8141 76be 2bfd 99be ccca 8cbe 12b5 7bbe
00000020: 0f54 193e 6f0b b3be 9fae bebe 3b31 f73d
00000030: 4231 833e 5423 903e 6343 a5be 2686 98bc
0.35434207 0.30597308 -0.26582742 0.26986828 -0.24048425 -0.30075964 -0.27498472 -0.24580792
0.14973472 -0.3496966 -0.372426 0.12069937 0.25623518 0.28151953 -0.32277974 -0.018618654
